pytorch_data/pytorch.pth (torch, 38861 bytes, 8 tensors)

0.weight f4 [34, 1]
00000000: e8e8 62bf 90d1 c3bd 6ff0 00be 61ac 533f
00000010: 8ee7 7a3e 200c b6bd b26f 233f 5850 1cbf
00000020: 2348 953e 6ba8 773f c17f 253f 8782 a73d
00000030: 41b7 593f d677 0cbe a608 183f 842f c53e
00000040: a173 773f 5777 953e 6a81 5fbf e905 4a3f
00000050: fe81 48bc 9204 0d3e 17a1 cd3e f0d4 99be
00000060: 5e14 803f 562f 223f 0430 83be af6c 153f
00000070: 4085 933c 0289 763f 0c03 08bf 8f20 ffbe
00000080: 22fd 72bf 1a32 173e
-0.88636637 -0.09561455 -0.12591718 0.82684904 0.24502394 -0.088890314 0.6384231 -0.61060095
0.29156598 0.9674136 0.6464806 0.08179193 0.8504525 -0.13717589 0.59388196 0.38512814
0.9666081 0.29192612 -0.87306845 0.7891527 -0.012238024 0.13771275 0.40161964 -0.3004527
1.0006216 0.6335348 -0.2562257 0.58368963 0.018007874 0.9630281 -0.5312965 -0.49829528
-0.949175 0.14765206

0.bias f4 [34]
00000000: 2008 d63d 4caf 223f 1d98 ac3d d27f 06bf
00000010: 9182 013e 743e f6be b782 203f a6d7 4abf
00000020: 8295 1a3e b516 4fbe 665b 1f3f e162 683f
00000030: bbb8 c33e 7022 9d3f 46bc 943e 44e7 77be
00000040: 7b96 86be de37 763f dcdb f5be cd82 093e
00000050: db8c 423f b3ed 233f db3b 72bf 68f5 2bbe
00000060: 9925 883f 886a 26bf 10dd 243e 3f21 e83e
00000070: 9c97 f1be 4d5e 52bf 20b2 1e3e f245 653f
00000080: 668d 0dbf 29c7 82bf
0.104507685 0.6354873 0.08427451 -0.5253879 0.12647463 -0.48094523 0.62699455 -0.79235303
0.15096095 -0.20223506 0.6224884 0.9077588 0.38226876 1.2276134 0.2904989 -0.24209315
-0.26286682 0.96178997 -0.48019302 0.13428803 0.7599618 0.64034575 -0.9462258 -0.16792834
1.0636474 -0.65006304 0.16099954 0.45337865 -0.4718598 -0.8217514 0.15497637 0.89559853
-0.5529388 -1.0217029

2.weight f4 [59, 34]
00000000: 780f 63bd e9d1 703e b517 9d3d aecb 383d
00000010: 3476 9d3d e841 d4bc bca7 6f3e fb76 233e
00000020: 193e 253e ec15 2b3e 2aed d03d 1ce6 dfbb
00000030: 27a2 123e 5995 9f3c d525 07bd be29 7abd
00000040: 062d 83bd 894c 3d3e 1e6d 8b3d 1e10 c8bb
00000050: 8672 803e 63c0 133e 6180 50bd 309b a7bc
00000060: 6a52 4cbd 0847 9ebd 2021 953b 5c26 6c3e
00000070: 001d 9a3a e5a2 5c3e 3039 72bc b90c 0bbf
00000080: 3921 133e e875 05be e5f0 0ebe a763 28bd
00000090: da1f 573e 0338 3e3e e116 963d 3fd5 173e
000000a0: fb1f 603b ecbd 743d 45b0 1d3e 5c64 823e
000000b0: 093d fe3d 56ec 643d e17c 7a3e 2411 993e
000000c0: c4d2 89bd 7f96 723e 0f3f a73c 71d2 8c3e
000000d0: 3761 133e b194 813e 061e 0f3e cbfc 783e
000000e0: ba19 b7bd e378 bcbd 7444 28bc a3de 773e
000000f0: dc2b 08bd b986 a53d 8fea 2a3e 1791 d23b
00000100: 75b3 053e 308d fdbe 492d b2bd 947d d3bd
00000110: 3a15 babd f41b 06bd e054 613d 7c1f 533d
00000120: 00da 3cbd 6ab0 17be 97c4 adbd 6603 c43d
00000130: 82e6 c43d c0c7 383c 681a 2bbe 6a45 f2bd
00000140: 37ef 2abe fed2 d93d e130 0b3e 4a43 25be
00000150: 1eaf 7bbd 69b7 0a3e 9001 00be 7ba0 073e
00000160: 1bc3 a5bd 4912 2abe 706b 643c ee56 c23d
00000170: 76f4 7ebd 82db d23d 20f4 d4bb b881 263d
00000180: 8d0e 0e3e 9910 003e 48df 9ebc e7ae d0bd
00000190: 4fca 1e3e 0822 503d cc0d 0abe 604a 073d
000001a0: 1e37 ed3d 1061 593c 4074 013d f831 d8bd
000001b0: e010 8cbc de01 44bd 1a48 01be 5d69 07be
000001c0: e0fd b3bb 52b3 6dbd 2092 c2bd 8468 543d
000001d0: 2cd5 00bd da6e 9abd 0847 41bd 20b7 0ebc
000001e0: 377d 113e f408 4fbd 5840 cf3c 5e2d 01be
000001f0: f67a 0cbe a01a dbbb 20a1 303c 7a0a a3bd
00000200: 980f 103d 20dc 283c 2e14 8c3d 3830 81bc
00000210: bbda a3bd c318 babd 908d fdbc 6221 833d
00000220: 483a 8e3d f6aa c83d 206b a53c 30cd 263c
00000230: 40af ad3c fbde 2e3e 870d 273e 1c25 cabd
00000240: 3d6d 103e 08e9 403d e2e2 b63d 61d8 a7bd
00000250: 5061 74bd 8e24 943d 513d efbd 8047 133b
00000260: ea8e 9e3d 399e 12be 662a c9bd a00e 3cbd
00000270: 8b4b febd e6b3 4cbd 28d9 ebbc 68d6 83bd
00000280: a13d 90bd 18c3 bb3c ec83 76bd 3ddf 08be
00000290: 957f 183e 206b b23c 3dbf 1a3e 5644 86bd
000002a0: 9c4c 3bbd 111c 283e d8c2 02bd 40f8 50bc
000002b0: fdc7 073e 70bb e43c a83f 4e3d fcd8 0abd
000002c0: 4603 bfbd 802f 8fba 2166 143e 5217 efbd
000002d0: cefe b63d 6c4e b6bd 9f53 bfbd 4ec2 f0bd
000002e0: 8438 1fbd 8871 9bbc d8ba 0fbd 44c9 6cbd
000002f0: 0057 9bba 3bb2 f5bd e378 2dbe 1ce9 64bd
00000300: 3090 803d ef05 2e3e 9355 03be 5584 96bd
00000310: 3c4e d8bd 60c5 353c 4007 75bc 307b 75bc
00000320: b7b9 2bbe 90ac 833d aa4c 07be 584a 953d
00000330: 20ba f8bb 4c7f 113e 5991 413e a910 e7bd
00000340: 98d0 0e3e ed57 183e 4701 dd3d c0e3 27bc
00000350: 4066 543e eb1d e4bd df82 c83c 1f72 06bd
00000360: 0aca 133d 3d7e 903d 0212 8e3d 3b22 06bd
00000370: 15e0 3e3e 0da4 92bc 2f60 acbd 8865 623e
00000380: f645 e83d 1fdc d33d a356 d03d 6a7a a03d
00000390: cdb9 393e c2a3 903d a274 1fbe 77b0 46bd
000003a0: 92ec ee3d d427 4a3e dcfe 3c3d 467b bdbe
000003b0: ae08 e13d 3754 d93d 1aa6 29be 8554 ee3d
000003c0: 39b8 4e3e 1f4e 253e 87dc 1ebc 622f 813d
000003d0: 806a 6c3e 7b61 debd 31a4 45bc d723 703e
000003e0: cb9f 543e 941e 48bd fe4f 9abd 7538 e9bc
000003f0: 5683 753e a642 a53d d9cb 4fbd bbc8 f43d
-0.055434674 0.23517574 0.076705374 0.04511612 0.07688561 -0.025910333 0.2340383 0.15963356
0.1613697 0.16707581 0.102014855 -0.006832851 0.14319669 0.019480394 -0.032995064 -0.061074965
-0.06405072 0.18486227 0.06807922 -0.006105437 0.25087374 0.14428858 -0.05090368 -0.020459741
-0.049883284 -0.07728392 0.004551068 0.23061508 0.001175791 0.21546514 -0.014784142 -0.5431629
0.14368142 -0.13033259 -0.13959081 -0.04111066 0.21008244 0.18576054 0.073285826 0.1482744
0.003419875 0.059751436 0.15399273 0.25467193 0.12413985 0.05588945 0.244617 0.2989589
-0.067296535 0.23690222 0.02041581 0.27504304 0.14392553 0.25308755 0.13976297 0.24315183
-0.08940454 -0.09202745 -0.010270227 0.24206023 -0.033244953 0.08082337 0.1669104 0.0064259875
0.13056739 -0.4952178 -0.08700044 -0.103266865 -0.0908608 -0.032741502 0.055012584 0.051543698
-0.04610634 -0.1481339 -0.08484762 0.09570961 0.096142784 0.011278093 -0.16709292 -0.11829646
-0.16692816 0.10635947 0.13592865 -0.1613895 -0.0614463 0.13546528 -0.12500596 0.13244812
-0.08093854 -0.16608538 0.013941631 0.09489237 -0.062244855 0.10295774 -0.0064988285 0.040651053
0.13872738 0.12506332 -0.019393578 -0.1018961 0.15506862 0.050813705 -0.13481826 0.033029914
0.115827784 0.01326777 0.031605005 -0.10556406 -0.01709789 -0.047853343 -0.12625161 -0.13223787
-0.0054929107 -0.05803234 -0.095005274 0.051857486 -0.031453297 -0.075406745 -0.04718688 -0.008710653
0.14207922 -0.050545648 0.025299236 -0.12614962 -0.13718781 -0.0066865236 0.010780603 -0.079609826
0.03517112 0.010306388 0.068397865 -0.015770063 -0.08000704 -0.09086754 -0.030951291 0.06402852
0.0694471 0.09798233 0.020192683 0.010180756 0.02120173 0.17077248 0.16313754 -0.09870359
0.14104171 0.047097236 0.08929993 -0.08195568 -0.059663117 0.07233535 -0.11681617 0.0022473037
0.077421024 -0.1431817 -0.0982254 -0.045912385 -0.124167524 -0.049976252 -0.028790072 -0.06437379
-0.07043005 0.022920176 -0.060184404 -0.13366409 0.14892419 0.021779597 0.15112014 -0.06556003
-0.045727357 0.16416956 -0.0319241 -0.0127545 0.13259883 0.027921408 0.050353676 -0.03389834
-0.09326796 -0.001092419 0.14492084 -0.1167437 0.08935319 -0.089016765 -0.09342121 -0.11755811
-0.038872257 -0.018975034 -0.035090297 -0.05780913 -0.001185149 -0.119968854 -0.16940646 -0.055886373
0.062775016 0.16994451 -0.12825613 -0.07349459 -0.10561797 0.011094421 -0.014955342 -0.0149829835
-0.16770063 0.06429398 -0.13212839 0.072895706 -0.007590547 0.14208716 0.18903102 -0.112824745
0.1394676 0.14877291 0.10791259 -0.010247171 0.2074213 -0.11138519 0.024476467 -0.032823678
0.03608135 0.07055328 0.069370285 -0.03274749 0.18640168 -0.017900491 -0.08416783 0.22109044
0.11341469 0.10344719 0.10172775 0.07835849 0.18137284 0.07062484 -0.15571836 -0.048508134
0.11666216 0.19741756 0.04614149 -0.37008113 0.10987984 0.10611766 -0.16567269 0.116372146
0.20187463 0.16143082 -0.0096961325 0.06307866 0.23087502 -0.10858437 -0.012063072 0.23451172
0.20764081 -0.048857287 -0.075347885 -0.028469304 0.23975882 0.08069353 -0.050731514 0.11952349

2.bias f4 [59]
00000000: 52ef 883e 517c b8bc 88b9 2abe 6bf2 12be
00000010: acf2 433d f175 19be f7ce f23d c2c9 fb3d
00000020: 1091 67be e617 873e a008 583e 3980 c83a
00000030: 0d05 093e acfb a23d 8bfd 1ebe 9533 dd3c
00000040: 665c 0a3e ec60 473d 7786 87bd a29c c93d
00000050: 4c2d 383e af6d 16be fa3f aa3d ef25 5ebd
00000060: e7da d4bd 1bf6 6bbd a105 07be 5270 83bd
00000070: 906e f2bd 258e 23bd 6353 ab3c 5aeb c03d
00000080: 32bd e4bd 94a3 6c3d 7229 ef3d 6025 75bd
00000090: 5b30 2f3e 2875 97bc 5443 283e d76b 2c3e
000000a0: 0e4a 36bd 546d c1bc 8f8d 323e de25 a83d
000000b0: 65df 1a3e 7d55 263e ddcc d93d 69c8 37bd
000000c0: 417d 2ebe b0ae f93c df21 803d e09d a8bb
000000d0: b21b cabd 4c4d ddbc 1215 2cbe 40a9 c33d
000000e0: ca70 0dbf fcdf 893e d033 e3bd
0.26745087 -0.022520216 -0.16672337 -0.14350288 0.04783885 -0.14986397 0.11855882 0.122943416
-0.2261393 0.2638542 0.2109704 0.0015297002 0.13380833 0.07958159 -0.15526406 0.027002135
0.1351181 0.048676416 -0.06617444 0.098443285 0.1798603 -0.14690278 0.08312984 -0.054235395
-0.10393315 -0.05760775 -0.13185741 -0.06417908 -0.118374944 -0.03993048 0.020913785 0.0941989
-0.11168899 0.057773188 0.11677827 -0.059850097 0.1710829 -0.018488482 0.16431934 0.16838013
-0.044504218 -0.023611702 0.17436813 0.082103476 0.15124281 0.16243549 0.10634778 -0.04486886
-0.17039968 0.030478805 0.062564604 -0.0051457733 -0.09868564 -0.027014397 -0.16804913 0.09553766
-0.5525023 0.269287 -0.11093867

4.weight f4 [109, 59]
00000000: ac7d 6d3d 602a b23c 66b5 943d a8bf e83d
00000010: 04c6 18bd 1a95 2fbd fe4d 9fbd b89a e93c
00000020: 0967 b5bd 5f80 f2bd b017 763c 0010 33b8
00000030: fed9 b63d 9c2d 293d a4cf c9bd 627f 04be
00000040: 83a8 febd 7cb9 7f3d cc97 83bd 3ec1 cb3d
00000050: d49b adbd bc91 acbd 801c ea3a 8d4d f4bd
00000060: 985f e43d 58ac fbbd 54aa 2abd 4f96 02be
00000070: 3853 d63d 1493 9c3d 4cd5 023e 23d8 04be
00000080: 0264 ca3d 8011 173d 4011 253b 32fa ecbd
00000090: 0033 123a 6263 f43d c0b3 84bb d675 bb3d
000000a0: d084 7d3c 60c4 a7bc e229 963d 9e31 f2bd
000000b0: a8ac 033e 00fd 263b f2a5 13bd 40d9 6ebc
000000c0: 041b 053e 04b4 573d c89d 7abd c04c f63c
000000d0: acbb f03d d9a9 b6bd b251 11bd e488 adbc
000000e0: fe46 f7bd 88a3 4ebd e85c 023d 7205 ed3d
000000f0: a838 00be 0047 51bb c1bc a2bd ccae 6e3d
00000100: d251 edbd 42ea 48bd deb7 96bd 70a9 19bc
00000110: 0784 93bd f8a6 14bd 8cf4 ff3d 2430 22bd
00000120: 8167 efbd 31d3 dabd cc43 03be 64fb d03d
00000130: 600a 4f3d e72e dfbd 7446 a7bd 64a5 bf3d
00000140: 3436 f3bc 2006 1b3c e88d 10bd db3c bcbd
00000150: 4085 dd3d 9432 013e 0009 e13a 69de b0bd
00000160: 76ab a8bd 3360 acbd 4605 55bd 2062 f93d
00000170: 38fc ff3d f2a7 8c3d 644b 063d a084 923d
00000180: ab34 05be 34ca 6e3d c245 02be b800 78bd
00000190: 24d2 6c3d b9c6 acbd 78ed c6bc 7a84 a1bd
000001a0: 101a 793d 38e7 e73d a5b4 b2bd 80ca 5f3b
000001b0: 24a7 a53d 5c5f 0fbd 1289 eb3d d42b 6cbd
000001c0: 92eb 92bd 1813 2e3d 445f 043d db2b 8abd
000001d0: 0cbb 57bd 70f0 da3d 666a 72bd ec69 32be
000001e0: 589a f53c 4e65 21bd 509e 363d e2ab eb3d
000001f0: 541c e5bb e6f8 20be 3b73 d7bd 0104 05be
00000200: 7358 843d cd7b a439 8bdf ca3b 3e40 973c
00000210: 6667 d4bd 9a33 4bba f60d 95bc b372 bebd
00000220: 3d47 983d caaa 323c 5939 f2bd 1ce7 97bd
00000230: cc5e 3d3d bb2b 9539 1458 643d 146f a0bd
00000240: cc39 d9bc 6c75 97bd 31ab 653c 8de5 c4bc
00000250: 7ad0 393c fa43 a5bd f44f b3bd 50b2 1fbd
00000260: 1a77 00bd 7219 b53d 7048 743c 6002 603d
00000270: c9ea 02be 00b8 2e39 0b0d 01bd 1623 9bbd
00000280: 7b76 bbbd 7afd 1ebe 2976 04be 035b b1bd
00000290: 2e06 bebb b99a e9bd 5eea 8a3d 9a52 9ebd
000002a0: fb98 8fbd 00c3 67bb 3428 be3d 9b72 38be
000002b0: 8caf babd 2644 bb3b bf81 8abd 88fb cbbd
000002c0: 84ac d23c 6fde b53c 4fa7 37bd ebf8 83bd
000002d0: d4a7 17bd 910b a2bd ea1a e63d a290 6abd
000002e0: c27a efbd f472 073d 424b 1ebe a315 41bd
000002f0: 1009 f63b a1ef 36be dcf1 d53d 4091 063b
00000300: a2c9 05be aa29 0e3d a340 f6bc 0de7 f4bc
00000310: 6b5d a9bd c7f6 59bd 3e85 cf3d 2827 8f3d
00000320: 22a4 b73d a23a ac3d 38e5 d93d fa6f b33d
00000330: 08d1 233d 5056 4fbd 6742 f0bd b848 42bd
00000340: 402f 853b 44b2 f63d 8acd 9dbd 5a09 8dbc
00000350: 3ce2 8dbd ac8f e73d 1ca7 823d 327e 30be
00000360: 30fd 1bbd a4ca d1bd f95d adbb f0ac 3fbe
00000370: d975 e23c c771 0abe 8f97 3cbe 7286 83bd
00000380: dec7 bdbd 7853 833c cc5b f9bc 3605 43bd
00000390: bb50 d5bd aa64 05bd 3395 3fbe c0eb 093c
000003a0: 7010 1bbb 068d f1bd 21a6 0ebe c6cb 34be
000003b0: 64bd cfbc f603 90bd 104a 243d 8cf9 7b3d
000003c0: 1819 8c3d 66f6 ae3d 02c2 03bd 74cb 55bd
000003d0: 6f86 d3bd 703f 933c 1cd9 dabc 38b2 013d
000003e0: 2c8d 993d 40df 81bc 1cfe 093d 32df 2abd
000003f0: 1e58 06bd 0047 96bd 0aab 853d dcbb aebd
0.05798118 0.021748722 0.072611615 0.113646805 -0.037298217 -0.042866804 -0.07778548 0.028516158
-0.08857543 -0.11840891 0.015020296 -4.2691827e-05 0.089282975 0.041303262 -0.098540574 -0.12939218
-0.12434485 0.06243275 -0.06425437 0.099489674 -0.084769875 -0.08426234 0.0017861277 -0.11928854
0.111510456 -0.12288731 -0.041666344 -0.1275265 0.104650915 0.076452404 0.12776679 -0.12973075
0.09882356 0.036881924 0.0025187284 -0.115711585 0.00055770576 0.11933018 -0.004049748 0.09153335
0.0154735595 -0.020479381 0.07332207 -0.1182587 0.12858832 0.002548039 -0.03604693 -0.014578164
0.12998587 0.05266191 -0.06118563 0.030065894 0.117545456 -0.089191146 -0.0354783 -0.021183439
-0.120740876 -0.050448924 0.031826884 0.11573304 -0.12521613 -0.0031933188 -0.07946158 0.058272168
-0.115878716 -0.04905153 -0.07359289 -0.009378776 -0.072029166 -0.036292046 0.124978155 -0.03959669
-0.11689664 -0.10684813 -0.12818831 0.10204199 0.050547004 -0.10897618 -0.08167735 0.09357718
-0.029688932 0.0094619095 -0.035291582 -0.09191295 0.10816431 0.1261695 0.001716882 -0.08636171
-0.082358286 -0.08416786 -0.052006982 0.12176919 0.12499279 0.068679705 0.03278674 0.071542025
-0.13008372 0.058298305 -0.12721923 -0.06054756 0.057817593 -0.08436341 -0.024283156 -0.07886596
0.06081587 0.11323398 -0.087258615 0.00341478 0.0808852 -0.03500305 0.115007535 -0.057658985
-0.07173838 0.042498678 0.032317415 -0.06746646 -0.052668616 0.10690391 -0.0591835 -0.17423218
0.029980823 -0.039403252 0.044584572 0.115073934 -0.0069919024 -0.15719947 -0.10520025 -0.12989809
0.06462183 0.00031372756 0.006191199 0.01846325 -0.10371284 -0.00077515247 -0.018195134 -0.09299221
0.074354626 0.010904977 -0.118273444 -0.074171275 0.046232983 0.00028452076 0.05574806 -0.078336865
-0.026516818 -0.07395443 0.014017866 -0.02403524 0.011341209 -0.08069606 -0.08755484 -0.03898841
-0.031363584 0.08842744 0.014909849 0.054689765 -0.12784876 0.00016662478 -0.03150658 -0.075750515
-0.09153458 -0.15526381 -0.129357 -0.08659937 -0.0057990765 -0.11406464 0.06782983 -0.07730599
-0.070116006 -0.0035364032 0.09285012 -0.18012469 -0.09115514 0.005714911 -0.06763028 -0.09960085
0.025717027 0.022200791 -0.044837292 -0.06443962 -0.037025288 -0.07912362 0.11235602 -0.05726684
-0.11693336 0.033068612 -0.15458396 -0.047139775 0.0075084046 -0.17864849 0.10446522 0.0020533353
-0.13065198 0.034707703 -0.030060118 -0.02989533 -0.08269771 -0.05321386 0.10132836 0.0698989
0.08966853 0.08409621 0.10639423 0.08761592 0.03999427 -0.050619423 -0.11731415 -0.04743263
0.0040644705 0.1204572 -0.07705219 -0.017216373 -0.069279164 0.113067 0.0637953 -0.1723564
-0.038083255 -0.10243729 -0.0052907434 -0.18718314 0.027644085 -0.13519965 -0.1841719 -0.06422128
-0.09266637 0.016031012 -0.03043928 -0.04761239 -0.10415789 -0.032566704 -0.18709259 0.008418024
-0.002366092 -0.11794476 -0.1393056 -0.17655858 -0.025358863 -0.070320055 0.040109694 0.061517283
0.06840724 0.085430905 -0.032167442 -0.05219598 -0.103283755 0.017974585 -0.026714854 0.031664103
0.074976295 -0.015853524 0.033689603 -0.041716762 -0.03279888 -0.07337761 0.06526764 -0.08531925

4.bias f4 [109]
00000000: 1074 17bd 6832 f33c 0131 973d 0a4d 98bd
00000010: 9057 383c 1409 f6bd 06e5 6d3e c709 cf3d
00000020: 8c45 38bd dccf 35be 0e5a be3d ce9f 28be
00000030: 8556 dd3d 2d48 a63b 920a 43bd 4032 2b3c
00000040: 75e8 6d3e 3456 0fbd 3a50 d93c 7268 653e
00000050: 2947 abba cbed 853d c697 783d ca3f e7bd
00000060: 29cb 2c3e 3c46 713e 0875 883e 9b84 483e
00000070: bde8 10be 9499 473e f9e2 74bb ccb0 673e
00000080: f0f2 283d 2d0f 8b3d d71b f0bd 70d0 90bc
00000090: c302 e8bd a20d 8c3e 5dbe 613e aa45 fabd
000000a0: e8ff 6e3e 9919 59bd 580a 11bc c840 273e
000000b0: 885a 903d 11b4 abbd bec4 8e3d e159 6e3e
000000c0: f921 7d3e e0e7 eebb c470 953e 5707 b13c
000000d0: 17ea 14be 61b5 00be 57fa 82bd ebbd d0bd
000000e0: 52a0 dabd 4533 943e 67a8 823d 3b7f 8b3d
000000f0: f89c 8abc e786 27be 12bf 713d ab48 f93d
00000100: 30ab a7bc e3c8 1e3d 5d20 3ebe b77c 083e
00000110: a7f3 02be bde5 be3c cc2d b6bc 72b1 163e
00000120: f0f9 f83d 1bb6 0c3d a3e8 f5bd e73c 013d
00000130: 60ea 9d3b b85b fcbd c64a 9c3d 643d 543e
00000140: 87b1 55ba 0d9c 943d 4435 ce3d cc3b b6bd
00000150: 5851 85bc a5ee a23d 5411 7c3d f217 2c3e
00000160: 6bc4 c9bd 7257 483d 051b 3e3e 17d9 7abd
00000170: a0f8 dfbd 3b06 2ebd b46b adbd a007 e2bb
00000180: 8649 9f3e 018f dfbd 18f1 693d a306 01be
00000190: e56f 8d3d 21c1 ddba ac2f d93d 495d bfbd
000001a0: d766 3e3d a946 c73d 9065 2cbe 7a7c c03d
000001b0: 2720 d53d
-0.03697592 0.029687122 0.07382394 -0.07436569 0.011251345 -0.1201345 0.23231897 0.10109287
-0.0449882 -0.17755073 0.0929452 -0.1646721 0.10807518 0.005074522 -0.047617503 0.010448992
0.23233207 -0.03499432 0.026527513 0.22403124 -0.0013067472 0.06539496 0.060691617 -0.11291464
0.16874374 0.23561949 0.26651788 0.19581835 -0.14151283 0.19492179 -0.0037366732 0.22626036
0.04124731 0.06790004 -0.1172406 -0.017677516 -0.11328652 0.2735415 0.22045274 -0.122203186
0.23339808 -0.053002927 -0.008852564 0.16333306 0.070485175 -0.08383954 0.06971119 0.23276474
0.24719991 -0.0072908252 0.29187596 0.021609945 -0.14542423 -0.1256919 -0.06395405 -0.10192474
-0.1067511 0.28945366 0.063797764 0.06811377 -0.016920552 -0.16360055 0.05902011 0.121720634
-0.02046737 0.0387658 -0.18567033 0.13328825 -0.12788258 0.023302907 -0.022238635 0.14716128
0.12157047 0.034353357 -0.120072626 0.03155222 0.0048191994 -0.123221815 0.076314494 0.20726544
-0.0008151759 0.07256327 0.10068753 -0.08898124 -0.01627414 0.07955674 0.061539963 0.1680601
-0.09851917 0.04891152 0.18564995 -0.06124219 -0.10936093 -0.04248641 -0.08467808 -0.0068978816
0.3111078 -0.10915948 0.05711469 -0.12600188 0.06906108 -0.0016918519 0.10604796 -0.093439646
0.046484794 0.09730274 -0.16835618 0.09398742 0.10406523

6.weight f4 [2, 109]
00000000: b2d6 293d a6f5 583d b6b9 d4bc a153 0f3d
00000010: f6bc 1f3d 0d42 a1bb fd33 343e 651e 2a3e
00000020: ba77 0a3d 1c04 e7bc 2531 de3d c356 aa3c
00000030: 723c 363e 5eb8 c43b 3b53 5b3c c1de 8f3d
00000040: 92bc f63d bc82 b13c 6e1a 573c f4d8 3b3e
00000050: 520e 173d 9c7a 113e c406 d1bc 62f4 183d
00000060: 14f5 063e 5591 443e bafa 1f3e 3113 273e
00000070: 10d7 393d e578 fa3d d17e 1d3d 1af2 d83d
00000080: 6380 9fbd d1b6 9b3c b4e3 2fbd 8cbf dd3c
00000090: ec5b a4bc da4f f43d 3065 903d 61b7 b03d
000000a0: 8dba 113e d024 143c b7da a3bd d9be 003e
000000b0: e5b9 3fbd d6e6 453d d2a5 043d 0191 223e
000000c0: 583f 213e d91a 4fbd b7fa fd3d 7cfd 72bc
000000d0: 2702 263c 603d 483c 1efa 6a3d 5cce f2bb
000000e0: 8089 51bc afde 143e 4f1c 413e 7bdd 2dbc
000000f0: 3282 99bd 1995 3bbc 2c6f 313e 7e0a ec3d
00000100: 75be 54bd c487 033c b91c c93c 8237 193e
00000110: f538 b63b 1fd9 3cbc 18c5 b4bc 9327 033e
00000120: 80e1 c4ba a3e8 823d 3c06 99bd 9f28 f2bc
00000130: db38 853d b632 bebd 5821 6d3d 0fd6 243e
00000140: 3bc7 1ebd ca98 a63c 3840 5ebc a006 5bbb
00000150: 71f1 adbd c610 0d3e c0bb a5bb 9299 213e
00000160: 1d4b b03d 6e60 903b 277d 863d f7a4 ab3c
00000170: 8a0c 4dbc 9ce8 343d 48d5 853c 5f4f 94bd
00000180: ce42 f43d 081e 3e3c 39ef 013e d4c8 88bd
00000190: 6f7e 0e3e 8a17 9f3c 34f2 e9bc feaf 6e3d
000001a0: 9200 00bc 81e6 c93d 294f 37bc 40dd f8bb
000001b0: f1c4 3d3e e164 8f3d 8b27 51bd 515a c43d
000001c0: e838 9c3c 7ac9 4a3d 735e 203e 42fe 2e3c
000001d0: 624d 30bd 7579 53bd 0c8d d9bc 2dfd 033d
000001e0: 6d52 d83d c65c 6abc 7697 dd3d 64c7 0b3e
000001f0: d492 b23c 3b73 4a3d 0eb8 523d d2f5 443d
00000200: fb1d 44bd 4253 973d 8ad5 803c b456 d23d
00000210: f948 88bd 976b a6bd fc77 b4bd 1479 8c3d
00000220: ae42 ea3b a0d1 08bc 92fd b1bd fff1 7b3c
00000230: 82a2 a13b cb03 75bd 6a91 a1bb 004e 89b9
00000240: 20e4 1fbc e089 ebbb 38d7 2ebc 62a8 433c
00000250: 64f5 81bd 1852 e73c 79f6 16bd eac9 3d3d
00000260: 4be5 803d 71f6 babd f695 8e3c 9320 c23d
00000270: 44b6 4bbd b9b8 953d e887 86bc af89 06bd
00000280: bf05 85bc 589e 2a3e 9c4e b6bd bb45 843d
00000290: bd5f b2bc c2e0 d23d 8aa4 843b 172b f2bc
000002a0: b9b4 193d 0326 b33d 734b 903d 519d 88bd
000002b0: de48 e63c 39e1 5ebd e566 0e3e 2d0e 203e
000002c0: 4c70 ab3d c542 ec3d 7e06 a83d 6d85 1fbd
000002d0: 1491 c5bd c052 73bc cd6d 8dbd 5fa5 ba3d
000002e0: d871 5a3d 4ea4 7b3d 7b64 c03d d205 913d
000002f0: 79da 813d 06da 003e 4d61 c43d 8606 553d
00000300: 9dee 2dbd 5f3c acbd b11f ca3d c03f 9abb
00000310: 4e69 6f3d a555 823d 651e 163e 6da3 913d
00000320: 0b9a 033e eee5 c83c c174 e83d 9784 0bbd
00000330: f807 af3c 09b6 8ebd 3055 813c 3904 b33d
00000340: c06c 0fbd 87eb 123c 187a e13d 5de1 bbbd
00000350: 68b2 0c3e 8b86 663d 6392 ab3d bde4 9fbc
00000360: 047a a6bd a6fa cb3d
0.041464515 0.052968644 -0.02596746 0.034991864 0.038998567 -0.004921204 0.17597957 0.16613157
0.033805586 -0.028200202 0.10849217 0.020793324 0.17796496 0.0060034236 0.013386543 0.07024909
0.12047686 0.021668784 0.01312886 0.1834448 0.03687889 0.14206928 -0.025515921 0.037342437
0.13179427 0.19196065 0.15622988 0.16315915 0.045371115 0.1223009 0.03845102 0.10593052
-0.0778816 0.019008072 -0.042941764 0.027068876 -0.020063363 0.11929293 0.0705055 0.08628727
0.1423132 0.00904198 -0.08000701 0.12572803 -0.046808142 0.048315845 0.0323847 0.15875627
0.1574682 -0.050562713 0.12401336 -0.014830943 0.010132349 0.012221664 0.057367437 -0.007409854
-0.01278913 0.14538072 0.18858455 -0.010611887 -0.07495536 -0.011449122 0.17327565 0.11525439
-0.051939446 0.0080279745 0.024549829 0.14962581 0.005560989 -0.011526375 -0.022066638 0.12808065
-0.0015020818 0.06392028 -0.07471892 -0.029560385 0.06504985 -0.09287016 0.057893127 0.16097282
-0.03876422 0.020336527 -0.013565116 -0.0033420697 -0.08493317 0.1377593 -0.005057782 0.15781239
0.08608077 0.0044060266 0.0656684 0.020952685 -0.012515197 0.044167146 0.016337052 -0.07241701
0.119268045 0.01160384 0.12688912 -0.0667893 0.13915418 0.019420404 -0.028557874 0.058273308
-0.007812636 0.09858418 -0.011188307 -0.0075947344 0.18532158 0.07001663 -0.0510631 0.09587539
0.019070104 0.04950855 0.1566103 0.010680737 -0.043042548 -0.051629502 -0.026556514 0.03222387
0.105625965 -0.0143043455 0.108199045 0.1365028 0.021798529 0.0494263 0.05144506 0.048085995
-0.047880154 0.07388927 0.015726823 0.102704436 -0.066545434 -0.0812599 -0.08811948 0.06859031
0.007149062 -0.00835076 -0.08690943 0.015377521 0.0049327025 -0.05981807 -0.004930665 -0.0002618879
-0.009758979 -0.007188067 -0.010671429 0.011942001 -0.06345633 0.028237388 -0.03685615 0.04633514
0.06293734 -0.09129036 0.017405491 0.09478869 -0.04973437 0.07310624 -0.016422227 -0.03284615
-0.016238092 0.16661966 -0.08901712 0.064586125 -0.021774167 0.102967754 0.004047935 -0.029561562
0.037525866 0.087474845 0.07045641 -0.06670631 0.028110918 -0.054414008 0.13906439 0.15630408
0.08371028 0.11536173 0.08204363 -0.038945604 -0.09646812 -0.014851272 -0.069057085 0.09113573
0.053331226 0.06143599 0.09394165 0.07081188 0.063404985 0.1258317 0.09588871 0.052008174
-0.042463887 -0.08409952 0.09869326 -0.0047073066 0.058450036 0.06363992 0.14660032 0.07111249
0.12851731 0.024523702 0.11350394 -0.034061994 0.021366104 -0.06968314 0.01578769 0.0874104
-0.03501582 0.008967287 0.11009616 -0.09173844 0.13739932 0.056280654 0.083775304 -0.01951825
-0.081287414 0.09959917

6.bias f4 [2]
00000000: 5368 f93d f13f fcbd
0.121781014 -0.12316883
